…
                           [50,10]])
 
     idx = np.where(arr_scheduler[:,0]==epoch)[0]
     
     if idx.size>0:
         idx = idx[0]
         lr_fac = arr_scheduler[idx,1]
         lr = lr/lr_fac
     
     return lr

Model: "CNN_2D_NORM"
_________________________________________________________________
 Layer (type)                Output Shape              Param #   
=================================================================
 input_1 (InputLayer)        [(None, 120, 30, 39)]     0         
                                                                 
 layer_normalization (LayerN  (None, 120, 30, 39)      280800    
 ormalization)                                                   
                                                                 
 conv2d (Conv2D)             (None, 8, 22, 31)         77768     
                                                                 
 max_pooling2d (MaxPooling2D  (None, 8, 11, 15)        0         
 )                                                               
                                                                 
 gaussian_noise (GaussianNoi  (None, 8, 11, 15)        0         
 se)                                                             
                                                                 
 activation (Activation)     (None, 8, 11, 15)         0         
                                                                 
 conv2d_1 (Conv2D)           (None, 16, 5, 9)          6288      
                                                                 
 flatten (Flatten)           (None, 720)               0         
                                                                 
 batch_normalization (BatchN  (None, 720)              2880      
 ormalization)                                                   
                                                                 
 reshape (Reshape)           (None, 16, 5, 9)          0         
                                                                 
 gaussian_noise_1 (GaussianN  (None, 16, 5, 9)         0         
 oise)                                                           
                                                                 
 activation_1 (Activation)   (None, 16, 5, 9)          0         
                                                                 
 conv2d_2 (Conv2D)           (None, 18, 1, 5)          7218      
                                                                 
 flatten_1 (Flatten)         (None, 90)                0         
                                                                 
 batch_normalization_1 (Batc  (None, 90)               360       
 hNormalization)                                                 
                                                                 
 reshape_1 (Reshape)         (None, 18, 1, 5)          0         
                                                                 
 gaussian_noise_2 (GaussianN  (None, 18, 1, 5)         0         
 oise)                                                           
                                                                 
 activation_2 (Activation)   (None, 18, 1, 5)          0         
                                                                 
 flatten_2 (Flatten)         (None, 90)                0         
                                                                 
 batch_normalization_2 (Batc  (None, 90)               360       
 hNormalization)                                                 
                                                                 
 dense (Dense)               (None, 37)                3367      
                                                                 
 activation_3 (Activation)   (None, 37)                0         
                                                                 
=================================================================
Total params: 379,041
Trainable params: 377,241
Non-trainable params: 1,800
_________________________________________________________________
